data.pth (torch, 5418 bytes, 6 tensors)

l1.weight f4 [8, 54]
0.00760461 0.47634187 0.4901007 -0.19753799 -0.16027658 -0.45484158 0.60259485 0.45785874
0.41102114 0.35815603 -0.24724257 0.6275027 0.8639642 0.675816 0.37855098 0.32223532
-0.20725107 -0.44729942 0.22317967 -0.44183174 0.30229 -0.35834035 -0.41377237 0.27314696
0.61275077 -0.38264325 0.44629264 0.6654278 0.5621947 0.47612718 -0.42276528 0.77669907
-0.23384967 0.3579094 0.7702944 0.4842203 0.5817717 0.606356 0.373945 0.4761206
-0.3027554 0.035651967 0.62288165 0.39636683 0.62894356 0.59956205 0.26948905 0.3018626
0.15266313 0.31122717 0.49207285 -0.0036395376 0.4872372 0.28602946 0.63356274 0.54732895
-0.32195428 0.33098674 0.28638723 -0.75843805 -0.036297742 -0.16954316 -0.49251735 -0.2659052
0.38588408 -0.23992392 -0.33397475 -0.427938 0.41177034 -0.15177394 0.268429 -0.7580314
-0.21764727 0.581718 0.3898479 0.4934631 0.6025038 0.39382678 -0.178276 0.49322385
-0.3119131 0.40884492 -0.22191924 0.5647119 -0.47888654 -0.22483893 0.3253004 -0.3546718
0.29336208 0.04094453 -0.34224942 -0.49100804 -0.23920913 -0.12949583 -0.5529835 -0.3587221
-0.23991793 0.31191304 -0.25929204 0.38041687 0.7856978 0.2785806 0.17076878 -0.33901852
0.10487307 -0.16822022 -0.09029381 0.27393812 0.46642393 0.5607856 0.03988909 -0.3831565
-0.056190554 0.47384855 0.08764031 0.00486508 0.45763582 0.24736863 -0.23526196 -0.09080932
0.7155571 -0.052987628 0.44281024 -0.26732832 -0.15456767 0.39635557 0.46312785 -0.3900084
0.16723551 -0.3899922 -0.38972506 -0.6503015 -0.2349098 -0.34668317 0.75117123 0.4516476
0.50888956 0.1638944 0.23193964 0.047511086 0.3071162 0.15755239 0.5577205 -0.22714253
0.6005005 0.6011547 -0.09247312 -0.05309161 0.12676856 0.6856479 0.047514677 0.5274074
0.12380718 0.51157606 0.686378 0.23023914 0.34009457 0.7700407 -0.28560942 0.62358963
-0.11701759 0.42694703 0.011184603 -0.08418807 -0.06598264 0.049373716 -0.1336706 -0.094579995
-0.125864 -0.07115818 0.020275444 0.09960231 -0.016746178 -0.039127577 0.0145374695 0.001177757
0.08012073 0.019950151 0.11294924 0.029173985 0.04341589 0.051638305 0.01673317 0.04393971
-0.09566699 0.021155907 0.058292 -0.11942795 0.037724674 0.02111148 -0.001003772 0.12106302
0.12351212 0.10027268 -0.09814586 0.10615502 -0.0025578141 0.060435846 0.05439228 0.0839258
0.07018935 0.091105916 -0.11789633 0.016329959 0.018510371 0.02818391 -0.023952873 0.046296176
-0.11047861 0.059768826 0.0921734 -0.007990554 0.031297352 -0.056530178 0.013620859 0.025683966
0.38511297 -0.4403309 0.6109361 -0.06470039 0.21247345 0.38095364 0.5184228 0.45919695
0.5957653 0.42646408 -0.13012502 -0.23688677 0.196101 -0.2466123 -0.010773002 -0.34283546
-0.055741135 0.48889703 -0.31167975 -0.28049362 0.7044731 -0.30066478 -0.3410993 -0.44679567
0.5965243 -0.036198057 -0.34356365 -0.3031168 0.018080205 -0.30499253 0.20832454 -0.19189768
0.026001904 0.41522372 -0.2107688 -0.31361833 -0.09530536 0.6306205 0.6006143 0.4590988
00000000: 1830 f93b 15e3 f33e 7bee fa3e 6647 4abe
00000010: 8b1f 24be ffe0 e8be a843 1a3f 766c ea3e
00000020: 5d71 d23e 3a60 b73e 282d 7dbe 04a4 203f
00000030: c22c 5d3f 4702 2d3f 6fd1 c13e 07fc a43e
00000040: a039 54be 6e04 e5be 3689 643e c537 e2be
00000050: c1c5 9a3e 6378 b7be f9d9 d3be ebd9 8b3e
00000060: 3cdd 1c3f d1e9 c3be 7880 e43e 7a59 2a3f
00000070: feeb 0f3f f1c6 f33e b174 d8be c0d5 463f
00000080: 4a76 6fbe e73f b73e 0432 453f b9eb f73e
00000090: fdee 143f 263a 1b3f b875 bf3e 14c6 f33e
000000a0: c102 9bbe cc07 123d 2c75 1f3f 98f0 ca3e
000000b0: 7202 213f e67c 193f 78fa 893e bc8d 9a3e
000000c0: b953 1c3e 2b59 9f3e f9f0 fb3e 4f85 6ebb
000000d0: 2777 f93e 7472 923e 2b31 223f c01d 0c3f
000000e0: 31d7 a4be 1877 a93e 59a1 923e ff28 42bf
000000f0: f1ac 14bd b99c 2dbe 3c2b fcbe ba24 88be
00000100: 9992 c53e 9eae 75be bdfe aabe b11a dbbe
00000110: 90d3 d23e a16a 1bbe 876f 893e 590e 42bf
00000120: edde 5ebe 79eb 143f 259a c73e 32a7 fc3e
00000130: b03d 1a3f aaa3 c93e fc8d 36be d687 fc3e
00000140: 13b3 9fbe 1f54 d13e cc3e 63be f690 103f
00000150: 9e30 f5be 2d3c 66be c68d a63e 8b97 b5be
00000160: 8e33 963e 74b5 273d 513b afbe 6865 fbbe
00000170: 3df3 74be 8e9a 04be 5490 0dbf 6caa b7be
00000180: 0cad 75be 11b3 9f3e edc1 84be 00c6 c23e
00000190: 7e23 493f 1ea2 8e3e 03de 2e3e d693 adbe
000001a0: b1c7 d63d ec41 2cbe f6eb b8bd 9e41 8c3e
000001b0: 1ecf ee3e a58f 0f3f be62 233d 172d c4be
000001c0: 1128 66bd 479c f23e c37c b33d 406b 9f3b
000001d0: 3e4f ea3e 344e 7d3e 83e8 70be 3dfa b9bd
000001e0: c02e 373f 8e09 59bd 06b8 e23e 42df 88be
000001f0: fd46 1ebe 1eef ca3e 181f ed3e 2eaf c7be
00000200: c93f 2b3e 0fad c7be 0b8a c7be 297a 26bf
00000210: 328c 70be 7580 b1be c24c 403f 5b3e e73e
00000220: 9646 023f efd3 273e 9681 6d3e fc9a 423d
00000230: 563e 9d3e 6a55 213e c5c6 0e3f 0d98 68be
00000240: 67ba 193f 46e5 193f 8c62 bdbd 9776 59bd
00000250: 9ecf 013e 9f86 2f3f c09e 423d 2c04 073f
00000260: 9e8e fd3d a6f6 023f 78b6 2f3f cfc3 6b3e
00000270: e020 ae3e 6321 453f 663b 92be 92a3 1f3f
00000280: eba6 efbd cd98 da3e a03f 373c cb6a acbd
00000290: e821 87bd 183c 4a3d f2e0 08be 28b3 c1bd
000002a0: 7ee2 00be 61bb 91bd b018 a63c 4cfc cb3d
000002b0: 482f 89bc 3d44 20bd 912e 6e3c f85e 9a3a
000002c0: 5616 a43d 806e a33c ee51 e73d 48fe ee3c
000002d0: dcd4 313d b082 533d 0014 893c 20fa 333d
000002e0: 0eed c3bd 274f ad3c 98c3 6e3d a496 f4bd
000002f0: 3085 1a3d fcf1 ac3c 0091 83ba e3ef f73d
00000300: ecf3 fc3d c35b cd3d b200 c9bd ce67 d93d
00000310: 00a1 27bb 948b 773d 70ca 5e3d 4ae1 ab3d
00000320: 6fbf 8f3d bd95 ba3d a273 f1bd 68c6 853c
00000330: 10a3 973c f1e1 e63c d138 c4bc 0fa1 3d3d
00000340: 9c42 e2bd 28d0 743d 68c5 bc3d d0ea 02bc
00000350: a731 003d 308c 67bd 062a 5f3c 2e67 d23c
00000360: 872d c53e 0d73 e1be 4f66 1c3f a381 84bd
00000370: a492 593e 5b0c c33e 5bb7 043f dd1b eb3e
00000380: 1384 183f 8059 da3e 7e3f 05be 7292 72be
00000390: b3ce 483e ef87 7cbe 3f81 30bc 2188 afbe
000003a0: d150 64bd b650 fa3e 7d94 9fbe dc9c 8fbe
000003b0: 5958 343f bcf0 99be 91a4 aebe 67c2 e4be
000003c0: d1b5 183f 6a44 14bd 93e7 afbe 2032 9bbe
000003d0: f01c 943c fb27 9cbe 0753 553e d380 44be
000003e0: f201 d53c 3498 d43e c7d3 57be 9592 a0be
000003f0: 752f c3bd 5870 213f dcc1 193f ff0e eb3e

l1.bias f4 [8]
0.4546824 0.758139 0.38974807 -0.16728906 0.50118613 0.9338787 0.8870289 0.817771
00000000: 22cc e83e 6615 423f 0f8d c73e d34d 2bbe
00000010: bc4d 003f ad12 6f3f 5314 633f 7159 513f

l2.weight f4 [8, 8]
-0.30900884 -0.21820979 0.2008805 -0.27238968 -0.011533707 -0.04984644 0.14729145 -0.1964009
-0.7591288 0.25674692 -0.49802238 0.20585154 0.6229983 0.3920856 0.6973332 0.94374704
0.3196265 1.237549 0.55509114 -0.1774624 1.3182955 0.06784084 -0.37399235 -0.9159567
0.22808793 -1.3451792 0.90921295 -0.30185664 0.88170666 0.69659835 -0.37110746 1.0028825
0.59610164 -0.68474376 -0.6152711 0.37332293 1.1222286 -0.16983332 1.2826108 0.122425325
1.1994534 0.05332032 0.6567711 -0.22388689 0.13983865 -1.1752886 1.009949 -0.088837914
0.6076749 -0.11391304 1.2506325 0.25209445 1.2549479 0.61710304 -0.84619147 0.047394477
-0.5760877 1.1549335 -0.73063594 -0.005475534 -0.069751024 1.1797259 0.9651676 0.36304656
00000000: 6836 9ebe 6372 5fbe 9eb3 4d3e a976 8bbe
00000010: e0f7 3cbc c82b 4cbd 92d3 163e 511d 49be
00000020: 4456 42bf 5574 833e cafc febe bfca 523e
00000030: d17c 1f3f 72bf c83e 6e84 323f 6899 713f
00000040: 16a6 a33e 0168 9e3f 741a 0e3f b4b8 35be
00000050: e8bd a83f 23f0 8a3d ed7b bfbe 237c 6abf
00000060: e28f 693e d52e acbf 2ec2 683f f48c 9abe
00000070: 87b7 613f 4554 323f cc01 bebe 745e 803f
00000080: 1e9a 183f 5e4b 2fbf 6882 1dbf 2f24 bf3e
00000090: 30a5 8f3f c9e8 2dbe 972c a43f 21ba fa3d
000000a0: b087 993f 6866 5a3d 2722 283f 9b42 65be
000000b0: dd31 0f3e db6f 96bf 0246 813f a7f0 b5bd
000000c0: 9590 1b3f 3d4b e9bd ba14 a03f 8612 813e
000000d0: 22a2 a03f 77fa 1d3f 01a0 58bf b620 423d
000000e0: 7c7a 13bf dcd4 933f f50a 3bbf 1c6c b3bb
000000f0: a0d9 8ebd 4201 973f 3915 773f 3de1 b93e

l2.bias f4 [8]
-0.26065922 0.163986 0.21349841 0.33966053 0.48327428 0.45742604 0.3843437 0.7367709
00000000: 2075 85be f2eb 273e 549f 5a3e fce7 ad3e
00000010: ba6f f73e bf33 ea3e b3c8 c43e 059d 3c3f

l3.weight f4 [7, 8]
-0.21582541 -1.2060139 -0.857612 -1.2194595 0.64748114 0.71371245 -1.3858691 -0.1491379
0.23972538 -0.7588612 0.5448333 -1.5365617 -1.1423973 0.55409896 0.3016473 -1.0959859
0.088771075 0.50607514 -1.3330668 0.45211032 -0.093874194 -1.4291222 0.008532034 0.090729535
0.057191193 0.9013345 -0.36975086 -1.5922729 0.15882392 -0.7840789 -1.1171871 0.93791896
0.08779049 -1.1539007 -1.1123068 0.6563145 -1.1307089 -0.6289535 0.5616937 -0.6428106
-0.12502731 -0.057429098 -0.3150294 -0.14490926 0.3253517 0.21523374 -0.34053117 -0.63961804
-0.2833221 -1.1437951 0.48907074 -0.5636576 -0.6329266 -1.1258907 0.58933264 0.21141694
00000000: 5601 5dbe aa5e 9abf 768c 5bbf 4017 9cbf
00000010: 53c1 253f dcb5 363f 2964 b1bf 9bb7 18be
00000020: 927a 753e ba44 42bf 327a 0b3f 0eae c4bf
00000030: 133a 92bf 6ed9 0d3f 8471 9a3e 4449 8cbf
00000040: 9ccd b53d 248e 013f efa1 aabf 017b e73e
00000050: 1d41 c0bd 7aed b6bf f2c9 0b3c 68d0 b93d
00000060: 5041 6a3d dcbd 663f fc4f bdbe 99cf cbbf
00000070: bda2 223e 65b9 48bf fdff 8ebf 751b 703f
00000080: 80cb b33d 05b3 93bf 1260 8ebf 3a04 283f
00000090: 12bb 90bf 1903 21bf 29cb 0f3f 3c8f 24bf
000000a0: 2907 00be c63a 6bbd 894b a1be 1863 14be
000000b0: 7f94 a63e 3c66 5c3e 1a5a aebe 02be 23bf
000000c0: 980f 91be e167 92bf 7b67 fa3e dd4b 10bf
000000d0: 7a07 22bf 301d 90bf 81de 163f af7d 583e

l3.bias f4 [7]
-0.030807806 -0.22670002 0.099153034 0.058815576 0.18849854 0.14008147 0.15803602
00000000: a760 fcbc 0d24 68be bf10 cb3d 9ae8 703d
00000010: c305 413e 8471 0f3e 32d4 213e
